defect_classifier.pth (torch, 318072 bytes, 7 tensors)

conv.0.weight f4 [16, 1, 3, 3]
000000 45 00 64 be 8b ad 07 bd 04 45 5b 3e c6 11 f2 3d
       -0.22265728 -0.033124488 0.21413046 0.11819796
000010 86 84 89 be 30 00 90 be 30 38 8a bd 58 be d8 3c
       -0.2685892 -0.28125143 -0.06748998 0.02645795
000020 e8 64 d0 3a f8 e6 f5 b9 03 d4 80 be d6 f1 5a be
       0.0015899213 -0.00046902127 -0.25161752 -0.21381316
000030 ae db 6f be 05 69 2c 3e 58 70 80 3e 0c 94 40 3e
       -0.23423645 0.16836937 0.2508571 0.18806475
000040 76 a9 90 bd a5 26 65 3e 84 d4 85 3e 32 27 b9 3a
       -0.07063572 0.22378023 0.261387 0.0014126061
000050 ea 53 3c 3e 20 fd 94 bd 3d fc 93 3e 60 12 83 ba
       0.18391386 -0.07274842 0.2890338 -0.0009999983
000060 2a 46 07 3e 34 c5 96 3b c1 ab 28 bd 9b a5 26 be
       0.13210359 0.004601145 -0.041179422 -0.16274111
000070 66 60 bf bd e4 ad 8e be bf 6e 8e be 40 77 f2 3d
       -0.093445584 -0.27867043 -0.27818868 0.118391514
000080 c0 6b 80 bc 78 0d 68 be 38 ac 47 be e3 97 43 be
       -0.01567638 -0.22661388 -0.1949929 -0.19100909
000090 b0 55 8b be fa 6d 4c 3e a7 d0 66 be 92 4a 3b be
       -0.27213812 0.19963828 -0.22540532 -0.18290165
0000a0 2f f2 4e 3e 61 ba 61 be b9 a4 39 be 6c d8 9e be
       0.20209573 -0.22043754 -0.18129243 -0.31024492
0000b0 4d 14 ba bd 58 de 80 3d e1 4d 47 be 2b cb 6f be
       -0.09085903 0.06292409 -0.19463302 -0.23417346
0000c0 89 a1 33 be b5 e0 39 3e 57 cd ac 3e 8c b2 18 3e
       -0.1754209 0.18152125 0.33750412 0.1491186
0000d0 8e eb a6 be 52 a5 af bc 42 03 1c 3e c1 3b a5 3e
       -0.3260159 -0.021441136 0.15235618 0.3227215
0000e0 50 ad c8 3d 0e 39 a6 3e b6 13 a4 3d 62 fd 5c 3e
       0.09798682 0.32465404 0.08011572 0.21581033
0000f0 a8 e2 90 be be 15 1b be cb 32 fd bd b7 c2 31 3e
       -0.28297925 -0.15145013 -0.123632036 0.17359434
000100 eb ed 86 be 39 5f 61 3e 87 98 97 3e 9f 9b 57 be
       -0.26353392 0.22008981 0.29608557 -0.21055458
000110 05 22 9e 3e 84 f5 b6 bd 02 ee a5 3e 5a fd 09 be
       0.3088533 -0.08933547 0.32408148 -0.13475552
000120 60 28 c8 3d ce 8f ad 3e 7d d2 a2 3e 4c d2 d8 3d
       0.09773326 0.33898777 0.31801215 0.10586986
000130 a3 65 2f 3e 5d a5 96 be 68 62 26 be 29 39 f7 3c
       0.17128615 -0.29423037 -0.16248477 0.030178623
000140 7e 42 30 3d f9 63 9f 3e 2f 52 0d 3e e8 77 70 be
       0.043032162 0.3113096 0.13800882 -0.2348324
000150 11 63 0f be 79 e2 9e bd 4a 75 51 3d cc ad a8 3c
       -0.14002635 -0.0775804 0.051137246 0.020590685
000160 b2 98 e8 3d 96 34 9f 3e da e4 67 bd 2c ca 17 bd
       0.11357249 0.31094807 -0.056614734 -0.03705804
000170 9d f3 01 3d 30 7c a4 3e b2 04 96 be 95 b8 7f be
       0.03172647 0.32125998 -0.29300457 -0.24972756
000180 c8 9d bb 3d 8c ae 52 be ea 87 53 3e 56 39 c2 3d
       0.09160954 -0.20574397 0.20657316 0.09483592
000190 02 8e a0 3e 8b be b3 3e 71 ed 39 be 4c 04 35 bd
       0.31358343 0.3510631 -0.18156983 -0.04419355
0001a0 c1 df 17 be b8 ca 04 bc 8e 93 8a 3e 08 0d ef bd
       -0.14831449 -0.008104973 0.270657 -0.116724074
0001b0 fe c5 b5 3e 4b e9 77 3e 40 f3 8a 3e b1 4b 70 bc
       0.3550262 0.24210088 0.2713871 -0.014666484
0001c0 7a 1c 1f 3d 05 24 a1 3e 09 f4 05 be 76 af e6 3d
       0.038845517 0.31472793 -0.13081373 0.11263935
0001d0 0f fe 96 3e dc 49 1e be 5e 9b a4 be c0 8b db bd
       0.29490706 -0.15457863 -0.32149786 -0.107200146
0001e0 f7 59 8b be 48 bf 7b be f6 d4 85 be d1 38 5b 3e
       -0.27217075 -0.24584687 -0.2613904 0.21408392
0001f0 6e c8 84 3e 45 28 a8 3d 61 e3 41 be 28 fe 0f bd
       0.25934166 0.08210806 -0.18934394 -0.03515449
000200 60 34 02 be 78 2f 7e 3e a5 ed 70 3c ad 75 9a 3d
       -0.12715292 0.24822795 0.014705096 0.07541976
000210 4d d9 96 be 82 4a 2f be 1d e4 82 3e e3 99 ad 3e
       -0.29462662 -0.17118266 0.25564662 0.3390647
000220 90 0f 47 3e 0e e2 3e be 9d 7e a6 bd 8a 98 ad 3e
       0.1943953 -0.1864092 -0.08129618 0.3390544
000230 05 0b b3 3e ec e3 9e bb 95 fc 0d 3e ee f4 a7 3e
       0.34969345 -0.0048489477 0.13865884 0.32804054

conv.0.bias f4 [16]
000000 ec 3a 90 3e 02 20 79 3e 34 da 32 be 9e ea 53 be
       0.28169954 0.24328616 -0.1746605 -0.20694968
000010 59 15 60 3e 62 d0 92 be 33 60 b4 bd cb 9d a1 3e
       0.21883143 -0.28674608 -0.08807411 0.315657
000020 33 9c 8a bc 47 79 01 3e f5 5f 60 be 31 d8 29 be
       -0.016920185 0.1264392 -0.21911605 -0.16586377
000030 ce 24 81 3c ea 1a 38 3e 24 6d 01 3e 9b f3 61 bd
       0.01576462 0.17979017 0.1263929 -0.05516396

conv.3.weight f4 [32, 16, 3, 3]
000000 f6 09 8f 3d 2e 34 d2 3d 30 62 00 3d d1 36 c1 3d
       0.06984322 0.10263859 0.03134364 0.094342835
000010 b1 d7 84 3d 71 29 8b bc f2 6a 54 bd 70 16 45 3c
       0.06486452 -0.016987534 -0.051859803 0.012029275
000020 28 23 0f bb ae 74 66 bc 61 3d cf 3d 1d 22 ea b9
       -0.0021841023 -0.014065905 0.10119129 -0.00044657374
000030 c5 5d a1 3c ef 5a a6 bc 62 8b 3a bd 07 7e 4f bd
       0.019698033 -0.020307032 -0.045543082 -0.0506573
000040 15 a9 0e 3b c1 38 a5 3d d1 d2 cf 3b 76 11 99 3d
       0.0021768261 0.080674656 0.00634227 0.074740335
000050 75 10 99 3d df 60 ad 3d 04 d7 df 3c 30 a6 35 3d
       0.07473842 0.08465742 0.027324207 0.044347942
000060 cd 97 48 bd 8f 8c 8f 3d 15 84 4d bd 56 fd 24 bd
       -0.048972894 0.07009231 -0.05017479 -0.040280662
000070 8d 22 8a 3d 8e bc 53 3d 16 b6 db bc 45 fc 99 3d
       0.06744871 0.05169349 -0.026820224 0.0751882
000080 f9 f9 8c 3d 75 26 96 3d da f4 09 3d 90 66 fd bc
       0.06883616 0.07331554 0.033680774 -0.030932695
000090 be 33 12 bd 4b 37 21 3d 7f 6b 5b bc c1 4b 2e 3d
       -0.035693876 0.039359372 -0.013392328 0.042552713
0000a0 d2 68 50 3d 01 bf 4f bd 6e 7b 91 bc c5 6a 96 3d
       0.050881214 -0.050719265 -0.017759051 0.073445834
0000b0 11 1e b1 3d 86 c2 b3 3c 47 fe a4 3d 7a ab a4 3c
       0.08648313 0.021943342 0.08056312 0.020101298
0000c0 d2 2e 78 3d 80 df c5 bb 8d f0 d5 3a 56 51 35 bd
       0.060591526 -0.006038606 0.00163223 -0.04426702
0000d0 29 26 06 3d 2f 10 6d 3d ca 77 21 bd 74 f0 97 bc
       0.032751236 0.057876762 -0.03942088 -0.018547274
0000e0 67 90 0a bd ec 34 1d 3d 6a 67 bc 3c a1 1d 4d bc
       -0.03382912 0.03838055 0.02299853 -0.012519271
0000f0 3a 48 da 3b 74 53 22 3c fa 33 32 3d 53 2f a3 3d
       0.006661442 0.009907592 0.0435066 0.07968011
000100 7b 29 70 3d b9 f2 dd 3c c6 54 17 bc 84 66 9e 3d
       0.05863331 0.027093278 -0.00923652 0.07734397
000110 1d 0b 80 bc da 73 8e 3d d8 df 8c bb d2 cc d0 3d
       -0.0156303 0.06955691 -0.004299145 0.101953164
000120 89 b3 9e 3c f6 00 a3 3d 3e dc 37 3b b0 30 0a 3d
       0.019372718 0.07959168 0.0028054859 0.03373784
000130 56 cd 44 3c 1c b0 44 3d 30 5f 4e 3d 05 97 1f 3d
       0.0120118465 0.048019513 0.050383747 0.038962383
000140 1a 3e 01 bd 9b 03 ae 3b da 60 b8 bb 84 06 4e bd
       -0.031553365 0.0053104884 -0.00562678 -0.050299183
000150 30 67 d1 3d 9f 6c 4f 3d 92 ce c1 3d 0d 33 81 3d
       0.102247596 0.0506407 0.09463228 0.06308565
000160 79 db 48 bd ad 51 c9 3d cb 5b 5c 3d 9b 91 6b 3d
       -0.04903743 0.098300315 0.053798478 0.057511907
000170 b5 dd 10 3d bd 8e 0a bd 6b 96 99 3d 96 fb 19 bd
       0.035367686 -0.033827532 0.07499393 -0.037593447
000180 b1 1b 3e bd 4b 1c 9d ba fd 2e 8f 3d 03 e5 a7 3d
       -0.046413127 -0.0011986581 0.06991384 0.081979774
000190 ba f7 f5 bc 01 ff 28 3d 7f 30 dd 3a 70 02 60 bd
       -0.030025352 0.041258816 0.0016875415 -0.054689825
0001a0 6a 55 8c 3d 0b d5 a3 3d 91 62 47 bd 75 d6 1f bd
       0.06852229 0.07999619 -0.048677985 -0.03902288
0001b0 6e 63 c0 3d ae 15 5d bb 32 7c 3e bc 1c 17 0f 3c
       0.09393965 -0.0033734846 -0.01162629 0.008733537
0001c0 47 3b cc 3d fa ed 37 3d 32 ae 5f bc 31 f1 d3 bb
       0.09972244 0.044904687 -0.013652371 -0.0064679612
0001d0 59 75 98 bc f9 52 84 3d 6b be 99 bc 41 7c 09 bd
       -0.018610643 0.06461138 -0.018767556 -0.033565763
0001e0 35 a9 63 bd f4 e7 ce 3d 89 f0 b3 3d 38 f2 1e 3c
       -0.05558129 0.10102835 0.08786113 0.009701304
0001f0 74 a9 1f bc a2 d0 b5 38 06 c0 28 3d c8 66 65 3d
       -0.009744991 8.6696135e-05 0.041198753 0.056006223
000200 ca c7 bc bc b6 29 f4 bc 49 21 84 3d a1 c0 0d 3d
       -0.023044486 -0.029805046 0.06451661 0.034607533
000210 a6 4d 8a 3d 65 bf d1 3b 42 6a 1d bd 3f d7 14 bc
       0.067530915 0.00640099 -0.038431413 -0.009084522
000220 e2 78 56 3d dd 71 4d 3d 65 b1 18 3d a1 2c b8 3d
       0.052361377 0.050157417 0.03727855 0.08992887
000230 37 5f 5f 3d c6 5b 57 bb fd 80 cb 3d c9 48 9d 3d
       0.054534163 -0.0032861098 0.09936712 0.07679898
000240 da 7b ca 3c 91 fb c4 3c 42 f5 21 3d 7d a0 25 bd
       0.02471726 0.024045737 0.039540537 -0.040436257
000250 5f ca bf 3d 18 b6 81 3d 1a d7 5f bd c2 37 1a 3d
       0.09364771 0.0633356 -0.054648496 0.03765083
000260 4b cb b2 3d ef 95 bf bc 68 17 7e 3d 2e 7b 05 3d
       0.08730181 -0.023386924 0.06203404 0.032588176
000270 35 6b 62 3d 59 c8 59 bd 49 31 1e 3a 1d 27 a6 bc
       0.05527802 -0.053169582 0.0006034566 -0.020282323
000280 b0 4c 10 bd 9b f3 b6 3d f7 68 b6 bc d9 94 27 bc
       -0.035229385 0.08933183 -0.022266848 -0.010228359
000290 bf 1d 30 3d 63 0b 84 bd e9 a6 ad 3d 0a b8 2c 3d
       0.042997118 -0.06447484 0.08479101 0.0421677
0002a0 d0 95 80 bd 1f b9 40 bd 10 10 46 3d 64 77 9c 3c
       -0.062785745 -0.047051545 0.048355162 0.019099899
0002b0 f6 c5 fc bc 67 88 a4 bd 16 2c 65 3d 3c 70 c9 3c
       -0.030856114 -0.08033829 0.055950247 0.02458965
0002c0 63 ed 5a bd 66 27 34 bd c3 43 49 bd 03 59 95 3d
       -0.053449046 -0.043982886 -0.04913689 0.07292368
0002d0 74 35 d2 3d d2 86 f3 bc 5d 78 46 3d 26 18 1a 3c
       0.102641016 -0.029727373 0.04845463 0.0094051715
0002e0 27 70 40 3d 55 1e 7a 3d 89 c9 90 3d b8 6e 1b 3d
       0.046981957 0.061064083 0.0706969 0.037947387
0002f0 b9 ac 5b 3d ac 81 c3 bc 75 26 96 3c 10 a4 1a 3d
       0.053631518 -0.023865543 0.018328885 0.03775412
000300 54 d7 21 bd f1 e4 57 bd 75 90 cb 3c 60 67 84 bd
       -0.039511994 -0.05270857 0.024849156 -0.0646503
000310 46 44 8c 3d 0a ff ea bc 07 47 a7 3c be 39 9c bc
       0.068489596 -0.028686065 0.02041961 -0.019070502
000320 25 b4 d2 3d 72 af 09 3d 0d 19 39 bc a5 5f 37 bd
       0.10288266 0.033614583 -0.0112974765 -0.044768948
000330 f2 e6 81 bd 30 56 bf 3d 8b 7d c0 3d 60 b9 c0 3d
       -0.063428774 0.09342611 0.093989454 0.094103575
000340 09 9f 29 3d 67 7b 24 3d a3 af 35 3b a0 ab 28 bd
       0.041411433 0.04015675 0.0027723096 -0.0411793
000350 09 af 47 3d b2 1c f1 bc 89 92 0b 3d ac d7 35 3c
       0.04875091 -0.029432628 0.034075294 0.011098783
000360 8e 14 d0 3d ed b7 1f bd a6 65 ea bc f6 40 62 3d
       0.101601705 -0.038993765 -0.028612923 0.055237733
000370 2e 55 8b 3d 51 3b a4 3d ee f8 a6 3d 0a 13 5a 3c
       0.06803356 0.08019126 0.08152948 0.013310203
000380 20 df 0e 3d bd a8 d2 3d 58 24 97 3c 95 43 e6 3c
       0.034880757 0.102860905 0.018449947 0.028108397
000390 3a 18 c4 3c c6 65 a8 bc 75 99 61 bd 93 e3 f7 bc
       0.023937333 -0.020556342 -0.05507799 -0.030259883
0003a0 c5 87 81 3d 91 c8 09 3c a2 62 6e 3c f7 52 4c 3d
       0.06324724 0.008409635 0.014549883 0.04988381
0003b0 11 70 b0 bc 83 61 2a 3d 69 31 81 3d bc 86 96 3d
       -0.021537812 0.0415969 0.06308252 0.07349917
0003c0 08 9d bf 3c 87 eb a7 3d f1 70 2f bd 04 e1 cd 3c
       0.023390308 0.0819922 -0.04283232 0.02513171
0003d0 4a 12 5a 3d e0 64 90 3d 9d 78 a3 3d 68 22 98 3d
       0.053240098 0.070504904 0.079819895 0.074284375
0003e0 12 e8 bb 3d 27 fe 82 3d 5b f2 1c 3d 36 e7 4b bd
       0.09175123 0.06396132 0.038317066 -0.049781047
0003f0 79 3d b0 3c 9a bf a0 3a 67 d4 1a 3d cb 4b ac 3d
       0.021513687 0.0012264133 0.03780022 0.08412894

conv.3.bias f4 [32]
000000 7f df ca 3c f5 08 b8 3d 65 b0 4f 3c 2d 76 ed bc
       0.024764774 0.089860834 0.012676333 -0.028987015
000010 d0 88 0b bd 88 6d 6d bd a8 fb 86 bd 5a 46 24 3d
       -0.03406602 -0.057965785 -0.06590968 0.040106155
000020 3f 92 30 3d 08 78 27 bd 55 98 8e bd 23 2a af 3d
       0.04310822 -0.040885955 -0.06962649 0.08552959
000030 e5 cd 8f bc f6 c1 82 3b 3f 80 c4 3c 69 c9 c0 3d
       -0.017554233 0.003990407 0.023986934 0.09413416
000040 94 97 bc bb dd 15 2c 3d 69 23 37 bd eb 62 5b 3c
       -0.005755374 0.042013038 -0.044711504 0.013390283
000050 18 f9 12 3d 50 4a f6 3b d0 b1 ec bc 68 f7 a0 3d
       0.035882086 0.007516183 -0.028893381 0.07859689
000060 21 16 a3 bd af af 0c bd 1f 38 bd 3d 83 65 6b 3c
       -0.07963205 -0.034347232 0.0923922 0.014367464
000070 28 2e 01 3d a5 5e c0 3d eb 3c b7 3d b8 eb b5 3b
       0.03153816 0.09393052 0.08947166 0.0055517815

fc.0.weight f4 [64, 1152]
000000 86 63 2f 3c f6 78 6f 3c 11 a4 36 3c 60 93 eb bc
       0.010704881 0.014616242 0.011147515 -0.028756797
000010 91 7b 02 bd 25 f6 ae 3c 7b f8 0d bd 2d 08 3d bb
       -0.031856123 0.021357605 -0.034660798 -0.0028843984
000020 91 67 81 bc 45 3a 94 3c 2e e1 e2 bb 0d bf 82 3c
       -0.015796455 0.018094191 -0.006923816 0.01596024
000030 b9 ec 98 3c 57 65 8f 3b 58 bb a1 bc 9f 56 35 3b
       0.018667566 0.0043760943 -0.019742653 0.0027670038
000040 c5 65 09 bd 4f df 96 ba a7 24 a9 3c c9 92 a2 3c
       -0.03354432 -0.0011510643 0.02064736 0.019845383
000050 ce c7 f4 bc 35 53 e7 bb a6 3d ac bb f2 ae 7b 3c
       -0.02988043 -0.0070594796 -0.0052563725 0.015361534
000060 ce ca 17 3c a4 a5 bf ba 4d 62 cc bc 0c 54 5e 3b
       0.009264661 -0.0014621508 -0.024949217 0.0033924608
000070 dd 39 7b bc 3b 9d 3d 3c ce 90 bb 3b 53 3a 2c bc
       -0.01533362 0.011573131 0.005724049 -0.010511952
000080 b5 40 a5 3c e3 61 83 bc 05 7f 06 bd a4 4c 96 3c
       0.020172456 -0.016037887 -0.03283598 0.018347092
000090 97 bf 26 3c 50 e2 c0 bc c9 94 d4 bc c0 e6 52 bc
       0.0101775145 -0.023545414 -0.025949853 -0.012872398
0000a0 d9 31 b5 3c ea 60 f6 bc 8c f4 f3 bc 88 73 df bc
       0.022118496 -0.03007551 -0.029779695 -0.02727677
0000b0 59 80 2b 3c ea 24 09 bd c5 69 b4 bc af c6 03 bd
       0.010467612 -0.03348247 -0.022023091 -0.0321719
0000c0 23 85 11 3c ac 65 ea 3a ad 37 f6 bc 93 d7 cf bc
       0.00888184 0.0017883084 -0.030055845 -0.025371348
0000d0 a1 7a 38 bc 96 48 a6 3c 97 62 86 3c 67 3a 98 3c
       -0.011259706 0.020298284 0.016404433 0.018582536
0000e0 f2 1f a0 bc f5 1f e1 bc fc 50 b7 bc 3d 7f bd 3b
       -0.019546483 -0.027481059 -0.022377484 0.0057829903
0000f0 4a 07 09 bd a7 08 da bc 72 b0 db bc 19 b0 b5 bc
       -0.033454217 -0.026615454 -0.026817534 -0.022178696
000100 b6 e8 91 39 63 4a 0a ba 58 88 76 3c 7e f5 7b 3c
       0.00027829938 -0.0005275367 0.015047155 0.015378354
000110 f1 f0 84 3b aa bd 30 bb 34 a7 03 b9 c7 e5 a2 3b
       0.0040570428 -0.0026968517 -0.00012555422 0.0049712393
000120 4c 2a 37 bc 1a 21 6d bc 06 e0 11 bc e1 aa 21 3a
       -0.011179518 -0.014473224 -0.008903509 0.00061671255
000130 66 62 1d 3c ad 1c a5 3c cc 4a 9c 3b f3 41 8d 3c
       0.00960598 0.020155275 0.0047696587 0.017243361
000140 a3 88 df bc be 3e 07 bd 8e 45 dd 3b cc da e1 bb
       -0.027286833 -0.03301882 0.0067526763 -0.0068925377
000150 d0 93 b3 bb 5f 6a b4 3c b4 ac 5f 3c 50 41 91 3c
       -0.005480267 0.022023378 0.0136520155 0.017731339
000160 98 55 ac 3b 17 39 e4 3c 0f ff ad 3c e8 db 6f 3b
       0.005259227 0.027859254 0.021239785 0.003659958
000170 4c 73 b7 3b d3 a7 6d 3c 42 df 0d 3c 46 39 41 3c
       0.0055984613 0.014505344 0.008659186 0.01179344
000180 4f 60 c0 bc 70 1d ec bb 43 8b b2 3b ec f5 c4 bc
       -0.023483424 -0.0072056577 0.00544873 -0.024043046
000190 a1 64 cf bc b9 53 ef 3b cc 21 b8 bb 93 16 9f 3c
       -0.025316538 0.0073036817 -0.0056192633 0.019419944
0001a0 bc ee 92 bb 31 dd 6c 3c e6 c9 33 3c 38 71 44 3b
       -0.0044840258 0.014457033 0.010973429 0.002997471
0001b0 c7 ec 9f 3c 19 e5 08 bd d7 74 4e bc 04 a1 03 bd
       0.019522084 -0.03342161 -0.012601099 -0.03213598
0001c0 d6 2b b0 3c db f5 3f 3c 29 b2 a3 bc 58 17 8e 3b
       0.021505278 0.011716331 -0.019982414 0.004336279
0001d0 1f 7b df bc e1 56 15 3c 42 55 8e 3c 61 8f a8 3c
       -0.027280388 0.009114952 0.017374638 0.02057618
0001e0 f8 c3 79 3c ac 5e 86 bb 81 a3 00 3b 9e 84 1a bc
       0.0152444765 -0.0041006412 0.0019628706 -0.009431032
0001f0 45 35 39 bb 2b c3 91 bc 80 1a 25 bc fc ae 79 3c
       -0.002826051 -0.017793259 -0.010077119 0.015239473
000200 aa c6 7f bc 77 b2 03 bd 03 2d 3f 3b 3c b1 ba bc
       -0.01561133 -0.03215262 0.0029171116 -0.02278959
000210 45 bb 96 3c 8c 8b 48 bc f5 98 86 3c 62 87 f1 bc
       0.018399844 -0.012240302 0.016430357 -0.0294835
000220 42 2c a0 3b e9 0b 01 bc e4 d5 54 bc f2 4f 1a bc
       0.0048880884 -0.007876375 -0.012990449 -0.0094184745
000230 55 ae 0d bd b0 87 3c 3c 4f 3a a5 3c a4 47 2d 3b
       -0.034590084 0.01150696 0.020169405 0.0026440406
000240 24 1d a8 3b 3e e7 4a 3c 4e 3f 71 3c 43 24 ed 3c
       0.005130427 0.012384234 0.014724566 0.028947955
000250 bc 6d e5 3b fa 3c 49 3c 4a 7c 33 3c 38 46 aa bc
       0.0070016067 0.012282604 0.010954926 -0.020785436
000260 e2 64 47 3c 59 9b 87 3c 32 39 53 3c 4a de 01 3c
       0.012170048 0.016553568 0.012892054 0.007926533
000270 83 ae 94 3c 8e a8 dd bc 86 32 b5 bc 4e 4e 94 bc
       0.01814962 -0.027057912 -0.022118818 -0.018103745
000280 37 a1 9a 3c ed 80 a0 3c 52 61 04 3c 8c df 35 bc
       0.018875701 0.019592727 0.008079844 -0.011100661
000290 6e 26 c1 bc 08 18 c1 bc cb df c7 3c cf 3f de 3c
       -0.023577895 -0.02357103 0.024398705 0.027130036
0002a0 1e fb 83 bc 51 eb b3 3c 05 52 88 3c 86 5b 40 bc
       -0.016110953 0.021962794 0.016640672 -0.011740571
0002b0 ea 14 4a 3c 54 ce b7 bb 46 a6 b5 bc 8e a2 9e bc
       0.012334088 -0.005609313 -0.022174012 -0.019364621
0002c0 16 4f 5d 3c d7 67 a1 3c 5f 4e cb 3c 84 6b 1a bc
       0.013507625 0.019702835 0.024817644 -0.009425048
0002d0 9f 38 e2 3c 28 07 a6 bb 10 96 e0 bc 15 dc cb bc
       0.02761489 -0.005066771 -0.027415305 -0.024885217
0002e0 d1 94 a3 bc 08 86 22 bc 30 ef fd bb 30 d4 26 bc
       -0.019968422 -0.009919651 -0.0077494606 -0.010182425
0002f0 30 03 68 bc 3a d1 25 bc 9a 05 be bc 6e 33 21 bc
       -0.014160916 -0.010120684 -0.02319603 -0.009838922
000300 eb ce a5 3c 63 96 ce 3c 18 68 53 3b 2d 9b eb bc
       0.020240268 0.025218194 0.003225809 -0.028760517
000310 56 2c 33 bc 04 c8 e5 3b 51 17 ef 3c ee 6a 44 3c
       -0.0109358635 0.007012369 0.029185923 0.011988385
000320 48 ff ec bc e7 fa cf 3c 46 08 9a bc a2 2b c6 bc
       -0.028930321 0.025388194 -0.018802773 -0.024190728
000330 ca c3 19 3c e0 7b a4 ba 75 0d 90 3c 14 23 c7 bc
       0.009385059 -0.0012549125 0.017584542 -0.024308719
000340 f8 82 0c 3b 5f c0 f0 bc df 4a bb bc 31 b2 a1 3c
       0.0021440368 -0.029388605 -0.02286285 0.019738289
000350 76 e5 95 bc 46 b4 03 3c 87 f3 9c 3c 0c fa 80 3b
       -0.018297892 0.008038586 0.019159092 0.003936058
000360 cf 33 72 bc 2a 71 c5 bc a8 ed 81 bb 5d c9 73 bc
       -0.01478286 -0.024101812 -0.0039650984 -0.014879552
000370 00 d8 d0 3a 68 97 11 3b 09 5e cf bc a5 8c de 3c
       0.0015933514 0.002221549 -0.025313394 0.027166674
000380 3e 06 ab bc d0 15 f5 3a 0a 46 c3 bc 4a 92 61 3c
       -0.020877 0.0018698517 -0.023837108 0.013767788
000390 e8 b3 31 bc bd 6f b3 3c 16 7e 0a bc 06 87 10 bc
       -0.010846116 0.021903867 -0.008452913 -0.008821255
0003a0 87 dd 78 bc 54 3f be 3b b0 e0 31 bc a3 43 a9 3c
       -0.015189535 0.005805889 -0.010856792 0.020662135
0003b0 e0 57 aa ba 22 e1 2b 3c da 1c 08 bc 84 49 b4 bb
       -0.001299616 0.010490688 -0.00830766 -0.005501928
0003c0 1c 5d f4 3b d6 3d 5c 3c 38 7f 57 3b f2 58 26 3c
       0.0074573886 0.013442477 0.0032882225 0.010153042
0003d0 88 d7 58 3b aa bd 11 bc 3d 41 c9 3c c3 49 92 3c
       0.003308745 -0.008895317 0.02456724 0.017857438
0003e0 69 26 9f bc 88 b6 36 bb 00 5c 2c 38 40 89 4c ba
       -0.019427495 -0.0027879793 4.1093677e-05 -0.0007802434
0003f0 8c 86 ca 3b ed 03 b0 3c c3 50 d9 bc 2a bd ef bc
       0.00618059 0.021486247 -0.026527768 -0.029265005

fc.0.bias f4 [64]
000000 d5 a9 84 3c a3 dd 86 3a 79 d6 c8 3a ae 14 03 3d
       0.016194263 0.0010289442 0.0015322707 0.032002144
000010 d8 a6 d4 3a e5 66 c6 3a e7 9e e5 3b aa 93 d5 bc
       0.001622404 0.0015136866 0.007007468 -0.026071388
000020 93 00 ae bc 0c 51 23 3c a3 d3 22 3d c9 0d cc bc
       -0.021240508 0.009968054 0.039752614 -0.024908917
000030 41 67 9d 3c c4 d0 19 bd bd e1 20 3d 56 7f ce 3c
       0.019214274 -0.03755261 0.03927778 0.025207203
000040 e3 df 93 3a 10 6d b8 bc 17 40 81 bc 05 8b a3 3c
       0.0011281933 -0.022512943 -0.01577763 0.01996375
000050 62 7e 57 3c d1 ab c3 bc 67 5c 9c 3c 5c c4 f4 bb
       0.013152691 -0.02388564 0.01908703 -0.007469697
000060 e4 33 90 3b f2 ed d6 3c 00 08 6f 38 38 69 7d bc
       0.004400717 0.026236508 5.698949e-05 -0.015466981
000070 56 73 1e bb 81 fe 09 3d 4e 61 4b bb 3c 81 7a 3b
       -0.0024177632 0.03368998 -0.003103334 0.0038224002
000080 1f 66 0a bc c2 ea a3 ba 6a aa 2d bc 5f e1 c7 bc
       -0.008447199 -0.0012505876 -0.010599712 -0.024399457
000090 62 d6 f7 3c a9 a7 3a 3d 59 81 ff 3c b4 ce 2e 3c
       0.030253593 0.04557005 0.031189607 0.010669399
0000a0 a4 91 b4 3c 33 9a 14 3d a4 2c 7e 3b 21 39 83 3d
       0.022042103 0.03627987 0.0038783932 0.06407381
0000b0 67 3b 1a 3d 8d ef c5 bc 98 b0 8f ba ac 85 d9 3b
       0.037654307 -0.024162078 -0.0010962663 0.0066382494
0000c0 70 c1 06 3c ee 02 04 bb 97 ea 44 3c f0 b8 14 bb
       0.00822483 -0.0020143348 0.012018821 -0.002269324
0000d0 29 42 9d 3c 1d 1c 72 3b b8 09 f8 bb 61 66 a7 3c
       0.019196587 0.0036943026 -0.007569518 0.02043456
0000e0 ce 73 19 bc 5d 13 10 bd 04 58 ca 3c f2 97 e8 bc
       -0.009365989 -0.035174716 0.024700172 -0.028392766
0000f0 aa bf b9 3c 85 15 2e bc 2e d0 42 3d f4 b5 53 bc
       0.0226744 -0.010625248 0.047561817 -0.012921799

fc.2.weight f4 [1, 64]
000000 9f 57 a6 bd 5e 4c 91 bb d1 b2 6d bc e1 03 d2 3d
       -0.08122181 -0.0044341525 -0.014507965 0.10254646
000010 64 51 d0 bd 8d 28 f3 bd 49 eb b7 bd 6a 1f ec bc
       -0.10171774 -0.11872969 -0.08980424 -0.028823573
000020 b4 f5 f7 bd 56 42 0c 3e aa c4 c9 3c 00 60 93 37
       -0.12107411 0.1369718 0.02462991 1.7568469e-05
000030 5f 5f d6 3d 4c 19 9b bc 06 0c 39 3d cb 65 5e 3d
       0.10467409 -0.01893296 0.045177482 0.054296296
000040 7b db 05 3e 40 d5 d8 bd 4c 93 b2 bc c9 4d f5 3c
       0.13072006 -0.10587549 -0.021798752 0.029944317
000050 86 eb df bc 69 09 24 bd 19 ac ed bd 9a 8a 76 3d
       -0.027333986 -0.040048037 -0.11605091 0.060190775
000060 28 14 b9 3d f9 a8 81 3d 40 7a 94 bd f2 44 af bd
       0.090370476 0.06331057 -0.0724988 -0.08558072
000070 f0 40 ab bc 59 dd dd 3d 07 97 a2 3d b1 bc b5 3d
       -0.020904988 0.10833234 0.079389624 0.08873881
000080 f4 0d b8 3d 44 b6 8a 3d 54 fc eb 3d 53 40 d3 bb
       0.08987036 0.06773046 0.11522737 -0.006446877
000090 f0 9b 33 3d 22 28 c4 3d 74 b9 53 3e e7 0a 87 3d
       0.043849885 0.09577967 0.20676214 0.06593876
0000a0 3e 80 da 3c c5 97 a6 3d f3 c8 45 bd 49 cf 38 3e
       0.026672479 0.081344165 -0.048287343 0.18047823
0000b0 2e 22 17 3e f5 ed a3 bd 1a ff 16 3e 9e 55 c8 bd
       0.14759132 -0.08004371 0.14745751 -0.09781955
0000c0 fa 74 a4 bd 64 5f 84 3d 9b 6f 31 bd a2 b5 e2 3d
       -0.08030124 0.06463507 -0.043319326 0.110698
0000d0 46 f8 e5 bd 66 4b 8e bd ac de e1 3d ee 98 4a bd
       -0.11228995 -0.06947975 0.110287994 -0.04946225
0000e0 d7 2e 8c 3d 5c 2a 2e bd f2 3e 14 3e b2 a0 d7 3d
       0.068448715 -0.042520866 0.14477137 0.10528697
0000f0 a3 b1 6f 3d 86 18 c2 bd a7 1d ab 3d 20 a6 fd bb
       0.058519017 -0.09477334 0.08355265 -0.007740751
